…
All experiments in this study were conducted on a laptop computer with Intel Core(TM) i5-6300HQ CPU @ 2.30GHz x 4, 16GB of DDR3 RAM, and NVIDIA GeForce GTX 960M 4GB DDR5 GPU.

Table 1 shows the architecture of the VGG-like CNN (from Keras[4]) used in the experiments. The last layer, dense_2, used the softmax classifier and ReLU classifier in the experiments.

The Softmax- and ReLU-based models had the same hyperparameters, and it may be seen on the Jupyter Notebook found in the project repository: https://github.com/AFAgarap/relu-classifier.

Table 1: Architecture of VGG-like CNN from Keras[4].

| Layer (type) | Output Shape | Param \# |
| :---: | :---: | :---: |
| conv2d_1 (Conv2D) | (None, 14, 14, 32) | 320 |
| conv2d_2 (Conv2D) | (None, 12, 12, 32) | 9248 |
| max_pooling2d_1 (MaxPooling2) | (None, 6, 6, 32) | 0 |
| dropout_1 (Dropout) | (None, 6, 6, 32) | 0 |
| conv2d_3 (Conv2D) | (None, 4, 4, 64) | 18496 |
| conv2d_4 (Conv2D) | (None, 2, 2, 64) | 36928 |
| max_pooling2d_2 (MaxPooling2) | (None, 1, 1, 64) | 0 |
| dropout_2 (Dropout) | (None, 1, 1, 64) | 0 |
| flatten_1 (Flatten) | (None, 64) | 0 |
| dense_1 (Dense) | (None, 256) | 16640 |
| dropout_3 (Dropout) | (None, 256) | 0 |
| dense_2 (Dense) | (None, 10) | 2570 |

Table 2 shows the architecture of the feed-forward neural network used in the experiments. The last layer, dense_6, used the softmax classifier and ReLU classifier in the experiments.

Table 2: Architecture of FFNN.

| Layer (type) | Output Shape | Param \# |
| :---: | :---: | :---: |
| dense_3 (Dense) | (None, 512) | 131584 |
| dropout_4 (Dropout) | (None, 512) | 0 |
| dense_4 (Dense) | (None, 512) | 262656 |
| dropout_5 (Dropout) | (None, 512) | 0 |
| dense_5 (Dense) | (None, 512) | 262656 |
| dropout_6 (Dropout) | (None, 512) | 0 |
| dense_6 (Dense) | (None, 10) | 5130 |

All models used Adam[8] optimization algorithm for training, with the default learning rate $\alpha=1 \times 10^{-3}, \beta_{1}=0.9, \beta_{2}=0.999$, $\epsilon=1 \times 10^{-8}$, and no decay.

### 3.1 MNIST

We implemented both CNN and FFNN defined in Tables 1 and 2 on a normalized, and PCA-reduced features, i.e. from $28 \times 28$ (784) dimensions down to $16 \times 16$ (256) dimensions.

In training a FFNN with two hidden layers for MNIST classification, we found the results described in Table 3.
…
